trained_with_random_agent.pth (torch, 341335 bytes, 6 tensors)

conv1.weight f4 [64, 1, 3, 3]
000000 bd 9e 80 be 14 51 90 3e 1e 71 90 3e b8 53 e5 3d
       -0.25121108 0.28186858 0.28211302 0.11197609
000010 77 6c f6 bc 14 82 a2 bc a8 0e 76 be 98 bd 03 be
       -0.030081017 -0.019837417 -0.24029028 -0.12865293
000020 d5 1b 26 3e 9d 95 2c be 22 d2 93 3e 7b 94 4b 3d
       0.16221555 -0.16853948 0.28871256 0.04970215
000030 0a f5 c7 bc 67 f5 a6 ba a5 1e ae bd 4b e3 a7 3e
       -0.024408836 -0.001273793 -0.08501939 0.32790598
000040 ec 61 00 be 64 97 24 be b2 41 16 3d 87 77 82 be
       -0.12537354 -0.16073376 0.036683746 -0.25481817
000050 f1 85 70 3d e9 23 81 3e 24 c5 63 bc 35 c9 83 be
       0.058721486 0.2522271 -0.013901982 -0.25739446
000060 df d7 3f bc 64 00 22 3e 0f cb 21 3e 8a 55 73 be
       -0.0117091825 0.15820462 0.15800117 -0.237631
000070 8e 64 32 3e 04 dd 79 3e b4 ff 93 3e 04 12 8f be
       0.17421171 0.24400717 0.28906024 -0.27943432
000080 76 12 41 3e 80 e0 52 be 4e 65 84 be 98 27 38 bd
       0.18854699 -0.20593452 -0.2585854 -0.044959635
000090 34 5a 57 bd 1f 51 04 be 13 87 5b be 9d 35 90 be
       -0.05257626 -0.1292157 -0.21438245 -0.28165904
0000a0 a1 89 a8 3d 0d f2 62 be 9f bd 79 3e ff b1 08 3e
       0.08229376 -0.22162648 0.24388741 0.1334915
0000b0 6f 0e 29 bb f1 f9 66 3e 7d 95 a3 be e9 c1 58 3d
       -0.0025795957 0.22556283 -0.31949988 0.052919302
0000c0 f2 73 9c be 16 77 35 3e a4 d9 0c be 0b 89 5e be
       -0.3055721 0.17721209 -0.13754898 -0.21731965
0000d0 8f fc 71 be e3 e4 87 3d d1 97 f9 3c 00 c1 f2 bd
       -0.236315 0.066354536 0.0304679 -0.11853218
0000e0 f4 db 2f 3e 22 1f 83 bc ec 06 39 bd be f1 2f 3e
       0.17173749 -0.016006056 -0.045172617 0.17182061
0000f0 06 e3 72 be 62 ed 0f bd 5f ae a3 3e 0b 7a 95 be
       -0.23719415 -0.035138495 0.31968972 -0.29194674
000100 be a5 5e be 9f 8b 4b be d5 97 b6 bc 11 4f 42 be
       -0.21742913 -0.1987748 -0.022289196 -0.18975474
000110 ab 09 ef 3d 93 ac 21 3e bf 87 99 be a9 2e 01 be
       0.11671766 0.15788488 -0.2998638 -0.12615456
000120 dd c7 a7 be e5 2a fe 3b 14 f7 5a 3e b4 07 a6 3d
       -0.3276967 0.0077565783 0.21383315 0.08106938
000130 96 9f 50 be 38 1a 87 3e 1f c5 a2 be 09 4d e7 bd
       -0.20373377 0.2638719 -0.31791016 -0.1129399
000140 9b f9 67 bd f1 06 5b 3e d2 c3 38 3e fe cc 82 3d
       -0.056634527 0.21389367 0.1804345 0.063867554
000150 4e d7 45 be 75 29 15 be 93 f7 8c be e0 bb 0b bd
       -0.19320413 -0.14566596 -0.27532634 -0.03411472
000160 f4 44 28 bc cd a1 e2 3d ac 4b 92 3e ad 6c 6a bd
       -0.010270346 0.11066017 0.28573358 -0.057232548
000170 7d ca 09 3c 90 2e 67 3e 94 ca 9b be 1f 46 2b 3d
       0.008410093 0.22576356 -0.30427992 0.04181492
000180 89 60 0a be 91 35 ce 3b 43 ee 19 3d ff cf c2 3d
       -0.13513388 0.0062930067 0.03758074 0.09512328
000190 f8 40 8d 3e ff c7 d5 bd 20 69 8b be 0c 93 38 be
       0.2758863 -0.10438537 -0.27228642 -0.18024844
0001a0 ca 05 d3 bb 94 3d 1a be d8 69 6a bd b8 da 5f bd
       -0.006439899 -0.15062553 -0.057229847 -0.054651946
0001b0 13 2b f2 bd a2 d1 10 3e a1 f0 1a be 95 9a 1e be
       -0.11824622 0.14142469 -0.15130855 -0.15488656
0001c0 89 d9 97 3e 63 5f 0b 3e 76 c6 2e bd 36 4f 77 be
       0.29658154 0.13610606 -0.042669736 -0.2415131
0001d0 0c 64 ac 3e 8b 5d 23 3e 67 8e 8e 3e 7b 94 1d bd
       0.3367008 0.15953653 0.2784302 -0.03847168
0001e0 5f a1 2a 3b f6 c6 15 3e 99 02 94 be 13 35 15 3e
       0.0026036126 0.14626679 -0.28908232 0.14571027
0001f0 99 37 96 3d 99 fa 14 3e a5 d1 e6 bd 1a 1a 3c 3e
       0.07334823 0.1454872 -0.11270455 0.18369332
000200 df 48 9d bc 63 1c b6 3d 37 24 82 be 47 83 cf bc
       -0.019199787 0.08892133 -0.25418255 -0.025331153
000210 94 48 a6 3d 7a af 34 be 8e 92 a2 3e c9 11 5a bd
       0.08119312 -0.17645064 0.31752437 -0.053239617
000220 88 a4 31 3e 8c 1a 92 be c9 5d 3c be 95 30 5f be
       0.1734792 -0.2853588 -0.18395151 -0.21795876
000230 92 f7 11 3e a7 5c 8d 3e f6 61 2d be 09 09 aa bc
       0.14254597 0.2760975 -0.169319 -0.020756261
000240 33 92 7f be 90 fe 83 be 32 e8 ae 3e 0d d0 60 be
       -0.24958114 -0.25780153 0.34161526 -0.21954365
000250 3f 8e 05 bd e7 f3 cf 3d 2d bd 09 3e 60 0f 0c 3e
       -0.03260636 0.101539426 0.13451071 0.1367774
000260 1a 4c a3 be 11 d1 5a 3c de 1e a1 be 20 33 40 be
       -0.31893998 0.013355509 -0.31468862 -0.18769503
000270 65 cf 22 be f5 4b 52 3e a8 48 90 bd c1 44 98 3e
       -0.15899427 0.20536788 -0.07045108 0.29739955
000280 ea 72 a7 3d 3f b6 85 be 55 37 b0 bd 8e 42 e5 bd
       0.08176215 -0.26115605 -0.08604304 -0.11194335
000290 e5 8a 10 3d 40 85 46 3e 89 11 59 3e 56 11 ca bd
       0.03528871 0.19386768 0.21198095 -0.09866588
0002a0 16 ff d8 3c e2 3f a7 3e 9c 98 95 bd 7d ee 3f be
       0.026488822 0.32665926 -0.073044986 -0.1874332
0002b0 36 42 ea bd 11 f1 7f 3e 3b a7 b5 3d 4c f9 37 3e
       -0.1143841 0.24994303 0.08869787 0.17966193
0002c0 d1 aa f6 3d 6f f3 18 3e f5 87 f2 bd 48 d4 95 ba
       0.120442994 0.14936613 -0.11842338 -0.0011431063
0002d0 ed 0e 26 be e9 93 12 3e b4 42 a7 3e 61 b0 4d be
       -0.16216631 0.14314236 0.32668078 -0.20086814
0002e0 78 18 8a be ea 55 8d be ba 30 5f 3e bf 98 1b 3d
       -0.26971793 -0.2760461 0.21795931 0.037987467
0002f0 60 a6 0c be 57 87 79 3e aa d2 c7 3d 94 00 13 be
       -0.13735342 0.24368034 0.09756978 -0.1435569
000300 7c 9f 2b 3e 5c 33 23 bc 55 57 97 be bd 15 85 3e
       0.16760057 -0.0099609755 -0.29558817 0.25993147
000310 7a dc 0d be ff 86 63 3e c3 73 49 3e 53 de 92 bd
       -0.13853636 0.22219466 0.19673066 -0.07171311
000320 da 39 34 3d 2a c8 96 3e de 2d 51 3e 49 9f 30 be
       0.044000484 0.29449588 0.20427653 -0.17248262
000330 c4 6d dc 3c cd 49 86 bd d8 48 3d 3e b5 a1 8e bd
       0.02690781 -0.06557045 0.18484819 -0.06964437
000340 86 04 2e bd 67 b3 8f 3e 36 a7 26 3e d0 d6 93 3e
       -0.042484783 0.2806656 0.16274723 0.28874826
000350 7f 5e e6 bc cc 67 96 3e c5 5b a4 3d 9d 8c 95 bc
       -0.028121231 0.29376066 0.08025316 -0.018255526
000360 fe 5b 5d be 8c a7 93 be de 66 bd bd 3b b6 c4 3c
       -0.21617123 -0.28838766 -0.09248136 0.024012676
000370 30 ee 9d bd 04 b9 9c be ff 76 4b 3e 5d 25 7e be
       -0.07711446 -0.30609906 0.19869612 -0.2481894
000380 fb 22 6f be eb 87 7a 3c af d5 54 3d f7 01 54 be
       -0.23353188 0.015291194 0.051961597 -0.20703875
000390 b8 6c b4 3e ce f6 ac bd a9 71 26 3e 96 48 83 be
       0.35239196 -0.08445512 0.16254295 -0.25641316
0003a0 c6 fc cc 3d b3 98 92 3e af 1d 0a 3e 95 a7 bc 3d
       0.1000915 0.28632125 0.13487886 0.09211651
0003b0 e5 12 44 be 65 c0 2c bd 4a 17 a0 3e a9 c3 17 3e
       -0.19147833 -0.04217567 0.31267768 0.14820732
0003c0 08 3e 78 be 0d f6 42 be 41 50 ad 3e 56 0a ff 3d
       -0.24242413 -0.19039173 0.3385029 0.12453143
0003d0 fe 14 73 3e 83 66 6c be 90 68 e1 bc 36 6a 46 bd
       0.23738477 -0.2308598 -0.02751568 -0.048441134
0003e0 12 6b 16 3e b9 fc 03 be f1 f8 b3 bd ab 44 6b 3e
       0.14689282 -0.12889375 -0.08787716 0.22975414
0003f0 8e bc cf bd cd 33 62 3e 07 cc 85 be 00 48 98 3e
       -0.10143386 0.22090073 -0.26132223 0.29742432

conv1.bias f4 [64]
000000 3a 48 e5 3d 4f 47 97 be 3d bf 56 be 10 68 9b 3d
       0.11195417 -0.29546592 -0.20971389 0.07588208
000010 11 16 ad 3e 50 a1 86 3d f2 2e ee 3d 34 43 92 3d
       0.33805898 0.06573737 0.11630048 0.07141724
000020 64 8d 8b be 77 db 55 be 04 50 e6 3d 99 64 60 bd
       -0.2725631 -0.208845 0.112457305 -0.054783437
000030 d6 7f c1 3d 24 44 7e 3d 14 7d 29 3e ba 2e 15 bd
       0.09448211 0.062076703 0.1655162 -0.036421515
000040 c0 b1 91 3e 15 f0 a9 3e c4 27 a7 3e da 9a 84 3e
       0.28455925 0.3319098 0.32647526 0.25899392
000050 a9 60 35 bc 7a 7d 78 3e 0b b3 35 bd 45 bc 9f 3c
       -0.011070409 0.24266616 -0.0443602 0.019498954
000060 bc 45 69 3e fd d7 a4 3e 1d e8 b2 bd b9 ab 7c 3e
       0.22780508 0.32196036 -0.08735678 0.24674882
000070 a9 53 a6 3e c5 b6 3c be 80 65 4f 3e c9 e0 b0 bc
       0.32485703 -0.18429096 0.20253563 -0.02159156
000080 cd 7e 9c 3e 14 40 8e 3e 2c 1f 2b 3e 5d 75 37 be
       0.3056549 0.27783263 0.1671111 -0.17915864
000090 f9 14 da bb 84 2f 30 3e 68 2f 4b be 8a 80 5d 3e
       -0.006655332 0.17205626 -0.19842303 0.21631065
0000a0 9e b1 15 be 76 03 e8 bd b0 e6 53 be 6e 14 4c bb
       -0.14618537 -0.11328785 -0.20693469 -0.0031140107
0000b0 21 5c fe bd 32 b0 77 3e f6 2e 39 3e 0e 69 a3 bd
       -0.12419916 0.24188307 0.1808432 -0.07979022
0000c0 c5 15 23 3e 75 ec 40 3e fc 34 4a be 7b 8a 26 be
       0.15926273 0.18840201 -0.19746774 -0.16263764
0000d0 47 4e 36 3e b8 3d 44 be ac 10 a8 3e 82 05 b4 3e
       0.17803298 -0.19164169 0.3282522 0.35160452
0000e0 4b 2e e0 3c a7 f8 7c 3e 63 46 de bd 8b b9 a3 be
       0.027365824 0.24704228 -0.10853269 -0.31977496
0000f0 6f af 60 be f3 29 26 3e 4f ce d5 bd d4 22 cb 3c
       -0.21941923 0.1622694 -0.10439741 0.02479688

conv2.weight f4 [128, 64, 3, 3]
000000 66 7b c1 bc 37 a6 41 3d 30 5e 65 bc 8b f1 ca bc
       -0.023618411 0.047277655 -0.013999507 -0.02477338
000010 0b ae 4d 3b de 32 76 bb 4d f9 ab bc 92 a2 96 bb
       0.0031384255 -0.003756694 -0.0209929 -0.0045970166
000020 be 48 86 bc 71 19 62 3c 1e 39 44 3c ff 7f a7 3c
       -0.016392108 0.013800011 0.011976508 0.020446775
000030 34 fe 7b bc 55 92 6a 3c 0c cb 23 bc 2b f9 43 bd
       -0.015380431 0.014317115 -0.009997141 -0.047845047
000040 ab 0c cd bc 3c 01 07 3d e2 7c 08 bd 81 5c 61 bc
       -0.025030455 0.03296016 -0.033322223 -0.013754965
000050 f9 ce 13 3c 34 4d 58 bc ef 3c b5 bc ff 6c 89 3c
       0.009021514 -0.013202 -0.022123782 0.016775606
000060 b7 d2 0d bd 7c 07 9f 3b c3 57 0a 3d a6 ad 65 bc
       -0.03462478 0.004853187 0.033775102 -0.014018452
000070 1a 47 43 bc aa 77 b0 3c 70 b8 d8 bc 32 2f 38 3d
       -0.011918807 0.021541435 -0.026455134 0.044966884
000080 0e e0 9a 3b 15 4f 26 3d fc 13 e9 3c 0a 9b 60 3c
       0.0047264164 0.040602762 0.028451912 0.013708839
000090 e7 f7 bd 3c 55 a3 aa bc e9 53 f5 ba 84 b6 f8 3c
       0.023189498 -0.020829836 -0.0018717024 0.030360468
0000a0 3d e0 33 bc 84 90 e5 3c f2 a7 a6 bc 5d fe 34 bc
       -0.010978756 0.028023012 -0.020343754 -0.011046973
0000b0 e8 94 81 bc 0e 9b 23 bc 8a 4a e3 3b a8 de 46 3c
       -0.015818074 -0.009985698 0.006936376 0.012138046
0000c0 96 3c 93 bc 36 71 e1 3c 05 2f c6 bb ec c8 03 39
       -0.017973226 0.027519803 -0.0060480856 0.00012567983
0000d0 1f 6d ae bb 4d ab 40 bc 2c 40 53 bc 2e b0 57 3d
       -0.005323067 -0.011759591 -0.012893718 0.052658252
0000e0 ea e7 ba 3c 70 83 8f bc 2b e4 b7 3c 8a 25 1d 3c
       0.022815663 -0.017518729 0.022447666 0.00959147
0000f0 7b 2e 52 bc 9c ad 4f bc 79 68 10 3d 0c e8 fa 3c
       -0.012828465 -0.012675669 0.035255883 0.030628227
000100 22 6b 8e bc e2 ec 94 3c 15 6b e2 3c 72 67 1c 3d
       -0.01738507 0.01817936 0.027638951 0.03818459
000110 c3 a5 39 3d 66 d9 91 3b 75 cf b4 3c 98 5c 90 3c
       0.0453241 0.0044509647 0.02207158 0.017622277
000120 e8 d2 3b 3c c7 7f 2e 3c d8 aa 35 3d 40 72 0e bd
       0.011463858 0.010650582 0.044352382 -0.034776926
000130 61 30 4b 3d c8 9b 0d 3d b5 f4 d7 bc cd d7 32 3c
       0.049606685 0.034572393 -0.026361803 0.010915709
000140 81 38 b1 bc ff ce be 39 4e 15 e2 bb 42 9b 1f 3b
       -0.021633388 0.00036393848 -0.0068995124 0.0024354015
000150 97 ce 8c 3a fa 9d 06 3c 7d c3 f2 ba 63 56 b4 3a
       0.0010742721 0.0082163755 -0.0018521395 0.0013758655
000160 ae 91 cd 39 97 d5 5b bc 5d 02 f8 3c 0e 80 3c 3d
       0.00039209187 -0.013417623 0.030274564 0.04602056
000170 11 1f ad bc 84 c7 a1 bc 68 ea fe 3c 34 c8 e1 3c
       -0.021132978 -0.019748457 0.031117633 0.027561285
000180 7e fd 44 3c 6d 5b 41 bb b3 e4 49 3d fe 1c 9f bc
       0.012023328 -0.0029503957 0.04929037 -0.019423004
000190 c7 c0 ac 3c 78 64 fd 3c 37 cf 8d bb 91 17 47 3d
       0.021088017 0.030931696 -0.0043276804 0.04860646
0001a0 96 f4 89 bb 36 bf 55 3b 14 06 f6 3c f5 2e c2 3c
       -0.004210065 0.0032615191 0.030032195 0.023704031
0001b0 30 90 13 3d 84 36 51 3d da 30 a1 bc 1d ed 19 3d
       0.03602618 0.05107738 -0.019676615 0.037579644
0001c0 7d fd 4b 3d 6d cd 35 3c 28 65 92 3c 17 7d 7e 3c
       0.049802292 0.011096341 0.0178705 0.015532753
0001d0 80 f0 de bc 4b b9 c0 b9 bc a5 fb bb 59 1b 95 3c
       -0.027214289 -0.00036759148 -0.007679669 0.018201517
0001e0 2a d6 1c 3d b2 4a 2e 3c d5 bd 89 3c 31 e0 9d ba
       0.03829018 0.010637926 0.016814152 -0.0012044964
0001f0 27 73 a1 ba 4d 3e 51 bc db 22 c8 ba 72 5f 3e 3b
       -0.0012317643 -0.012771201 -0.0015269177 0.002904859
000200 e2 11 23 3d d2 e0 f9 3c 6f 89 f8 3b fb b1 c0 bc
       0.039811976 0.03050271 0.0075847427 -0.023522368
000210 18 b6 a8 3c 7d e7 02 bd 4c ad 10 bd a3 79 96 bc
       0.020594642 -0.031959046 -0.03532152 -0.018368548
000220 7b ea 0b 3c 2c 08 b9 bc eb a3 a5 bc 17 6a a2 3c
       0.008539791 -0.022586904 -0.020219764 0.019825978
000230 55 bc c4 bc 2d 87 45 bc 6b 34 47 3c 54 03 f9 3c
       -0.024015585 -0.012056154 0.0121584935 0.030397095
000240 62 2c 3c 3d 24 75 4d 3d bb 11 c5 bc 36 27 a8 3b
       0.045940764 0.050160542 -0.024056306 0.0051316274
000250 7e 9a 0f 3c 04 f4 37 bc 89 f9 5a 3c 2e 45 a7 bc
       0.008764861 -0.011227611 0.013365158 -0.02041873
000260 c5 b7 df bc d9 7d 82 3c cd 09 02 3d 79 25 ad bc
       -0.027309308 0.01592915 0.031747628 -0.021136032
000270 8a 1c cd 3c 4a d8 cb 3c bc b2 53 3d ab 2d 75 3a
       0.025038023 0.024883408 0.051684126 0.00093528134
000280 d9 cb 45 3b 6c 67 f8 bc 59 f5 e0 bc 6b 24 3a 3d
       0.0030181317 -0.030322753 -0.02746074 0.045444887
000290 7b 37 58 bc 82 8e 01 bd 10 11 aa bc 44 79 99 bc
       -0.013196821 -0.031630047 -0.02076009 -0.018734582
0002a0 b4 b2 79 ba c7 5e 18 3c 0e 2c f8 3c a6 77 ca 3c
       -0.0009525225 0.00929994 0.030294444 0.024715256
0002b0 f1 ee 85 bb 5f 67 2c 3d 39 c1 f2 bb 44 3c 6a 3c
       -0.004087322 0.04209077 -0.007408288 0.014296595
0002c0 28 31 09 3d 04 2b 1d bd 21 e0 3c 3c b1 e8 86 bc
       0.033494145 -0.0383711 0.011528046 -0.016468378
0002d0 91 0a 61 bc 24 35 46 3c 0f 2d 14 3d b8 88 10 bd
       -0.013735429 0.012097631 0.036175784 -0.035286635
0002e0 b4 c1 ed 3b 6c c3 81 bc 7f 01 25 3c ba 70 44 3b
       0.007255757 -0.015840255 0.0100711575 0.0029974417
0002f0 0b 66 68 3a bc d6 23 3d f3 7e ed bb 0f 0a da bc
       0.0008865303 0.03999971 -0.0072477995 -0.026616124
000300 f2 12 a3 bc a3 1f a8 3c 27 39 94 bc 61 df 17 bd
       -0.019906495 0.020522898 -0.018093659 -0.037078265
000310 1e e8 1b 3d 1d 09 2f 3d 9f d6 c4 3c 9e d7 f1 bc
       0.03806316 0.0427333 0.02402812 -0.02952176
000320 30 1c 35 3d 17 6d b1 bb 96 33 e0 bb 74 6b 2c bc
       0.044216335 -0.005414616 -0.006842087 -0.010523666
000330 1d 08 c7 3c 5a f4 e0 bc fc e3 23 3b d7 06 02 3d
       0.02429586 -0.027460266 0.0025007715 0.031744804
000340 ec 46 a0 3b 34 b2 39 3d 93 50 76 bc 46 2d 2d 3d
       0.004891267 0.045335963 -0.015033859 0.042279504
000350 85 4c 6e bc 76 aa c2 bc b8 0f 8f bc 92 a2 65 3c
       -0.014544611 -0.023762923 -0.01746355 0.014015811
000360 fe 75 91 bb 4b 23 a3 3c b2 27 e5 bc 87 b5 ba bc
       -0.0044391146 0.01991429 -0.02797303 -0.022791637
000370 13 a6 b9 3c 86 c3 80 3c 18 86 00 3d ae ca c0 bc
       0.022662198 0.015718233 0.03137788 -0.023534145
000380 06 e4 29 bc e5 bc 96 3c 08 3d 8b 3c f2 39 cb 3b
       -0.010369306 0.018400619 0.016996875 0.006201976
000390 b7 ce 6b 3c f0 79 9e bb b0 e8 45 3c e9 0f 31 3d
       0.014392546 -0.0048363134 0.012079403 0.043228064
0003a0 b7 29 d3 3c af 32 07 3d f5 d2 c2 3c 96 63 1b 3d
       0.025776727 0.03300732 0.023782233 0.03793677
0003b0 50 86 73 3c 40 e0 9d bc e7 19 06 3d 76 ae 53 3d
       0.014863566 -0.01927197 0.032739546 0.05168005
0003c0 97 ed 77 bc 51 8c 03 3d ff 14 d2 3c a8 ae f6 3a
       -0.015132329 0.032116238 0.025644777 0.0018820362
0003d0 57 39 a6 3b 55 3b 44 3d 81 b9 85 bb 69 98 ed bc
       0.0050727534 0.047908146 -0.0040809517 -0.029003339
0003e0 e4 1a a4 3c fa d6 41 3c 0b c2 63 3c f3 42 fa bc
       0.020032354 0.01183104 0.013901244 -0.030549502
0003f0 d0 cc 9d 3c e8 96 59 3c 5f b3 6f bc c9 c0 dc 3c
       0.019262701 0.013280608 -0.014630168 0.026947396

conv2.bias f4 [128]
000000 97 27 3d 3d 33 69 41 3c f0 91 d6 3c 9e 55 1f 3d
       0.046180334 0.011804867 0.026192635 0.03890001
000010 fa 07 22 3d 48 2f d6 bb 3e a7 a2 bc ca 8a 8e bc
       0.03955839 -0.006536398 -0.019855138 -0.017400164
000020 43 a7 c9 bc a2 9b 38 3b fb 51 92 bc e5 74 66 bc
       -0.02461589 0.0028168936 -0.017861357 -0.014065956
000030 87 14 bc bc 41 ab 84 3c 32 0b 34 bd 03 22 00 3d
       -0.022959007 0.016194941 -0.04395599 0.031282436
000040 a2 71 d9 bb d5 8a f7 bc 90 a8 e4 bc 32 fd 53 bc
       -0.0066358605 -0.030217567 -0.027912408 -0.012938784
000050 8b 61 e5 3c 48 a2 8a 3c d4 92 11 3c 7a fd 45 3d
       0.028000614 0.016923085 0.008885104 0.048337437
000060 f3 13 7b bb 67 36 24 3c 19 a8 8b b9 fd 36 7d 3c
       -0.0038311451 0.010022736 -0.00026637389 0.015455005
000070 d4 6e 6c bc 68 b7 f2 3c 7e 02 5a 3c 8a 00 f7 3b
       -0.01443072 0.02962847 0.013306258 0.007537906
000080 39 3b 10 3d fb 46 06 bd bf 86 ee 3c d7 35 5c 3d
       0.03521273 -0.032782536 0.029116986 0.053762283
000090 e4 70 85 3c d4 87 e3 bc db 03 82 bc ce 68 9e bb
       0.016289182 -0.027774729 -0.015870979 -0.004834271
0000a0 9c a7 fa 3c bb 54 a2 bc a2 ec 94 3b ec a5 fb bc
       0.0305975 -0.019815793 0.0045448104 -0.030718766
0000b0 4f c2 16 3d 55 1e 08 bb 54 82 53 3d 1f 38 b9 3b
       0.0368064 -0.0020770032 0.051637962 0.005652442
0000c0 37 ed d5 bc 98 8f 80 bc 26 3f 93 bc eb c7 b9 3c
       -0.02611409 -0.01569347 -0.017974447 0.022678336
0000d0 e1 c5 0c bb 83 30 19 bd b8 10 44 bc 06 9a 46 3d
       -0.002148025 -0.03739978 -0.011966877 0.048486732
0000e0 56 1e b4 bc da 2a d4 bc b9 e8 3d 3d 87 0f ce ba
       -0.021987122 -0.02589934 0.04636452 -0.001572118
0000f0 77 61 44 3d 2c 51 7d bc 44 0a cb 3c e1 ca f8 bb
       0.047944512 -0.015461247 0.024785168 -0.0075925444
000100 75 5b 2c 3d f6 7f 1f bd 58 e1 9d 3b a6 16 38 3c
       0.042079408 -0.038940392 0.004818123 0.011235869
000110 8c 37 af bb a7 d9 7a bc 35 54 cb 3b 07 5b c0 ba
       -0.005347198 -0.015310681 0.0062051066 -0.0014675566
000120 62 8b 26 3d 67 d8 0d 3c 5e 35 7f bc 1a c3 45 3d
       0.04066027 0.008657551 -0.015576689 0.048281766
000130 4e 9f ca 3c 37 3c df 3c ae 17 0f 3d 3c 99 82 3c
       0.024734166 0.027250392 0.034934692 0.015942208
000140 3d 7f c5 3c ef d7 e5 bc 24 8a bc bc a5 6f 3b 3b
       0.024108524 -0.028057067 -0.02301509 0.002860048
000150 9b 3d 73 3c 2c 19 45 3d 3d e3 87 bc 12 23 07 3d
       0.014846231 0.04811971 -0.016587848 0.03299243
000160 49 86 57 3d 17 a7 12 3d 5a ee 29 3d 29 07 b8 bc
       0.0526183 0.03580388 0.041487075 -0.022464352
000170 56 7b 09 3d 1f 9b 70 3b c5 32 22 bb 4e 01 34 bc
       0.033564888 0.0036713553 -0.00247495 -0.010986639
000180 c5 37 2e 3d 22 2d ef 3b 15 fc 53 3d 96 75 23 3d
       0.042533655 0.0072990814 0.051754076 0.03990706
000190 35 80 5b 3d 12 19 45 3d 72 f6 d6 3c a7 ab f7 3c
       0.053589065 0.048119612 0.026240561 0.030233217
0001a0 68 78 bf 3b fc fb 00 3d 07 72 84 3b ff e1 e4 bc
       0.005843211 0.03149031 0.0040419134 -0.027939795
0001b0 0b d9 9d 3b e4 60 1b bd 1a 2a 2a 3c 4d 66 f1 bc
       0.0048171333 -0.0379342 0.010386014 -0.029467726
0001c0 7d e2 16 3d 8d 09 00 3d e9 94 23 3d b3 47 04 3c
       0.03683709 0.03125911 0.039936934 0.008073735
0001d0 f8 31 28 3d df 57 2a bd 31 de 55 3c 8f f7 bf 3b
       0.04106328 -0.041587707 0.013053463 0.0058583687
0001e0 1e 24 f0 bb 1d ac 53 bc 40 17 2c 3d e7 09 a0 3c
       -0.0073285243 -0.012919453 0.04201436 0.019535972
0001f0 8a 5e 1f 3d 42 68 cb bc d1 87 d6 3c 7f b8 2b 3d
       0.03890852 -0.024829987 0.02618781 0.041923996

fc.weight f4 [9, 1152]
000000 c8 21 2c bc a7 ca 0b bd fa c7 2f bb fd e4 d5 bc
       -0.010506101 -0.03412881 -0.0026822076 -0.026110167
000010 57 55 86 3c 39 2f c4 bc 50 2d d8 bc fc 28 80 bc
       0.016398115 -0.023948299 -0.026388794 -0.015644543
000020 1e 05 21 3c ff 2e 35 bc fa 01 16 bd c1 a8 54 3c
       0.00982788 -0.011058568 -0.03662298 0.012979687
000030 e3 20 b6 bc f4 87 88 bc e3 05 00 bd fc 20 a2 bc
       -0.022232478 -0.01666639 -0.031255614 -0.019791119
000040 5f 7a 89 b9 27 18 d2 bc a2 8d ef bc 72 f6 eb 3b
       -0.0002622185 -0.025646282 -0.02924234 0.0072010094
000050 46 50 03 b9 9b f6 8f bb 19 25 47 bd 15 7f 25 bd
       -0.00012523038 -0.0043934113 -0.048619363 -0.040404398
000060 28 53 0d bd 73 9f 9b bc 6f 7c aa bc 60 af ef bc
       -0.034503132 -0.01899693 -0.020811288 -0.02925843
000070 82 d9 3d 3c ec 56 45 bc d2 33 01 bd b4 08 65 3c
       0.011587502 -0.01204465 -0.03154356 0.013979126
000080 35 f7 0b bd 20 2f a5 3c da 53 45 3c ce 1c 17 bc
       -0.034171302 0.020164073 0.012043918 -0.009223176
000090 a8 0e 0d bd 2b a6 f8 bc 25 a5 d8 bc 73 3b 1d bd
       -0.034437805 -0.030352673 -0.026445935 -0.038386773
0000a0 a6 1b 36 3c 59 28 0f bd b1 d1 43 bc 46 2b 16 bd
       0.01111499 -0.034950588 -0.01195185 -0.036662363
0000b0 cd a0 80 bc 15 44 b7 3c 94 7a b2 3c 17 bc db bc
       -0.015701676 0.022371331 0.021786965 -0.026823087
0000c0 a6 62 9d bc e5 ac 80 3c f4 e6 cf 3c d4 be b3 3c
       -0.019212078 0.015707443 0.025378682 0.02194158
0000d0 5f 66 14 bc 14 55 90 3c c6 b6 89 bc ef 5b d8 bc
       -0.00905761 0.017618693 -0.016810786 -0.026411025
0000e0 b0 75 46 bb a4 e7 19 3b 34 60 df 3c fe cd 8a 3c
       -0.003028255 0.0023484016 0.027267553 0.016943928
0000f0 78 01 9d bc 63 6c 6d 3c 60 35 df bc 96 c7 b4 bc
       -0.01916574 0.014491173 -0.02724713 -0.022067826
000100 b9 47 a7 3c cd 23 ab 3c 71 56 b3 bc 60 ef a1 3b
       0.020419942 0.020891095 -0.021891804 0.004941866
000110 77 a4 12 3b a0 ab 93 3c b2 49 60 3b 6f 89 d2 3c
       0.002237586 0.018026173 0.0034223613 0.0257003
000120 d1 7d 8a 3c 9a c7 e9 3b 8f 1a a3 bc dd f9 d6 bb
       0.016905697 0.00713439 -0.019910125 -0.0065605477
000130 8f a4 88 bc 81 7f cc bc a4 47 c6 bc 14 1e 0e 3c
       -0.01668003 -0.024963142 -0.024204083 0.008674163
000140 48 0e d0 3b bf c1 c9 bb c2 ea 0f bd d8 a2 19 3c
       0.0063493587 -0.0061571295 -0.035135992 0.009377204
000150 39 64 0a bd 9a 43 ae bc 1f cc 59 bc ee 96 92 bc
       -0.033786986 -0.02127247 -0.013293295 -0.017894235
000160 f1 9e ba bc 24 67 1a ba 6b 42 7f 3c 6b a2 df bb
       -0.022780867 -0.0005890003 0.0155798 -0.0068247817
000170 b2 7e 05 ba 7c dc 18 bd 24 44 a0 3a 2e 76 f8 bc
       -0.00050924264 -0.037319645 0.0012227339 -0.03032979
000180 78 5b 2d bb cf e1 e5 bc b6 b3 01 bd 89 26 80 3c
       -0.0026452225 -0.028061775 -0.031665526 0.015643375
000190 ed 52 32 bb 0d 96 31 bc 91 5e 82 3b cf 92 76 bb
       -0.0027210072 -0.010838998 0.0039785584 -0.0037624126
0001a0 62 d4 a6 3c 54 19 c3 3c a6 06 75 3c 77 fc 08 bc
       0.020364944 0.023815788 0.014955198 -0.008360974
0001b0 cc c4 a1 bc e6 ff 0c bd e3 6a a1 bc de 21 90 3c
       -0.01974716 -0.03442373 -0.019704288 0.017594274
0001c0 90 3a 8e 3c a0 d6 9b bc 91 75 1b bd a9 94 72 3c
       0.01736191 -0.01902324 -0.037953917 0.014805951
0001d0 f5 2a 8e 3b 99 41 24 bc 6b 8e e1 3b cb f5 3d bb
       0.004338617 -0.010025405 0.0068834326 -0.0028985615
0001e0 70 e3 95 3c ce 39 31 3c fa 8c aa bb cd f7 92 3c
       0.018296927 0.010817004 -0.005204794 0.017940426
0001f0 ca e1 95 bc 24 90 c4 3b 83 35 ed bb 84 ef aa bc
       -0.018296141 0.005998628 -0.007239045 -0.020866163
000200 7b c8 88 bb 8e 4a c6 3c 4d fa 90 3b 4e 0c a6 3c
       -0.0041742898 0.024205472 0.0044243694 0.02026954
000210 d1 eb e4 3c fa 3b e0 bc 40 d8 c6 bc 96 49 92 3c
       0.027944477 -0.027372349 -0.024273038 0.017857354
000220 ac de 6a bc 7c c4 42 3b 6e 77 f2 bc eb a9 02 bd
       -0.014335316 0.0029719165 -0.029597964 -0.031900328
000230 d4 52 0e bd b4 07 9d 3c 5a 3d 8d bc 54 7a 46 bc
       -0.03474696 0.019168712 -0.017241169 -0.012114126
000240 81 5e 06 bc 34 4c e3 3c d3 07 02 bd 77 67 1d 3b
       -0.008201242 0.027746297 -0.031745743 0.0024017969
000250 c1 6a 8a bc e1 e9 6f 3b 96 53 c1 bc 68 f3 81 bb
       -0.016896607 0.0036607909 -0.023599427 -0.003965784
000260 71 65 17 39 4e 3e 9a ba 95 de 0d 3c d2 e8 8c bc
       0.00014438272 -0.0011767836 0.008659025 -0.017200861
000270 5d c4 d2 bc 6b 5d fe bc 04 ce b3 3c 00 20 84 3c
       -0.025728399 -0.031050405 0.021948822 0.01612854
000280 cb cd fa bc a8 f8 bf 3c f8 cb b3 bb d5 bc 4c 3b
       -0.030615708 0.023433998 -0.0054869615 0.0031240482
000290 bf 24 db bc 9b fb 9f 3c 0e e7 17 bd 23 0b 40 3c
       -0.02675092 0.019529155 -0.037085585 0.011721405
0002a0 f6 40 0d bc 90 75 84 bc da 87 51 bb 8e 2a 7c bc
       -0.008621445 -0.01616934 -0.0031971843 -0.015391005
0002b0 5c 85 8e bc 56 1c bb bc 87 8e 0b bd 1c bf 06 bd
       -0.017397575 -0.02284066 -0.03407147 -0.0328971
0002c0 0c a0 9c bb 4d 03 f8 39 98 b4 28 bc 2b d0 f9 bc
       -0.0047798213 0.00047304705 -0.010296963 -0.03049477
0002d0 53 6c af bc 6b e2 03 bd 8a 45 b9 bc 55 4f 11 bd
       -0.021413958 -0.03219835 -0.022616167 -0.035476048
0002e0 eb 55 ba 3b ec ef 5d bc 47 12 12 bd 8d 03 1a 3c
       0.0056865118 -0.013545971 -0.035661962 0.009400261
0002f0 0d ab 4e 38 64 30 fe bc 28 a2 e4 bc ef 3f 08 3c
       4.927353e-05 -0.031028934 -0.027909353 0.008316024
000300 fd 8a ce 3a 88 02 e8 bc 87 9a 4c 3c 0f 70 be bc
       0.0015757974 -0.02832152 0.012488014 -0.023246793
000310 c0 0c 9c bc 3f 55 29 bc da 09 59 bc 8d 61 05 3b
       -0.019049048 -0.010335266 -0.013246978 0.0020352334
000320 10 d1 8e bd 18 63 80 3c 04 21 f1 3b 0e dd 36 bc
       -0.06973469 0.015672252 0.007358672 -0.011161102
000330 85 87 83 bc 77 d9 ab bc 9b fa 32 3c e2 ef 95 bc
       -0.016055832 -0.020977719 0.010924007 -0.018302862
000340 ef 18 85 3c 72 96 ba bc 58 59 ea bc 35 64 e3 38
       0.01624724 -0.022776816 -0.028607056 0.000108428685
000350 de 40 02 bc f6 5b 40 3c 30 d6 6d 3c 1b 9f 36 3c
       -0.007950036 0.011740675 0.014516398 0.011146332
000360 27 91 7c bc 84 d2 bb 3c e2 d3 33 3a 20 fe b5 bb
       -0.015415466 0.02292753 0.0006859881 -0.0055539757
000370 c9 03 5a ba cb 49 f9 b9 07 64 cc bc c8 88 5f bc
       -0.0008316604 -0.0004754796 -0.02495004 -0.013643451
000380 ae 89 53 3c b7 c2 9b b9 71 38 63 3c 95 78 17 bd
       0.012911243 -0.00029708978 0.013868437 -0.03698023
000390 fe bc 99 3b f8 87 bc bc fb 8f 1d 3b 42 9d 1d bc
       0.004691719 -0.023014054 0.0024042118 -0.009620013
0003a0 51 5e 9a bc 7e 3e 9b bc 26 20 c4 ba 64 2b d9 bb
       -0.018843802 -0.018950697 -0.0014963194 -0.006627487
0003b0 e1 80 07 3c fa 63 0d bd 79 7e 15 bd 4c 2a d3 bc
       0.008270473 -0.034519173 -0.036497567 -0.025777005
0003c0 e6 be 15 bd 54 60 8e bb e1 99 23 bd 5a d5 14 bc
       -0.036559008 -0.0043449793 -0.039941672 -0.00908407
0003d0 bd d0 80 3b 64 13 fc bb b0 b9 a9 bb 9f 95 a6 3c
       0.0039311335 -0.007692741 -0.0051796064 0.020335017
0003e0 e7 20 ef bb a5 84 bb 3c 69 93 a6 bc 12 da 4c bb
       -0.0072976234 0.022890398 -0.020333963 -0.003125791
0003f0 7f fc ea bc 67 38 de bc fa ad f9 bc 44 6c cf bc
       -0.028684853 -0.027126504 -0.030478466 -0.02532018

fc.bias f4 [9]
000000 ae 85 53 3c d3 ee be bb 07 26 47 bb a3 9b 73 3c
       0.01291029 -0.00582681 -0.0030387656 0.01486865
000010 59 cf 48 bc 95 23 44 3a eb 0e 30 bc fc b4 cf 3c
       -0.012256467 0.0007482109 -0.010745744 0.025354855
000020 bd 05 5c 3b
       0.0033572756
